runs/classification/Resnet1dAF.pkl (torch, 98599 bytes, 36 tensors)

weight f4 [64, 1, 16]
0	0xbe027056	-0.12738165
1	0x3e91fb01	0.28511813
2	0xbe0af98d	-0.13571759
3	0x3efba241	0.49147227
4	0xbe7423c4	-0.23841769
5	0x3eafc952	0.34333283
6	0xbeafc138	-0.34327102
7	0xbd22dd47	-0.039761808
8	0xbee03add	-0.4379491
9	0x3ee1e814	0.44122374
10	0xbed585db	-0.41703686
11	0x3ef3175b	0.47478756
12	0xbf221356	-0.63310754
13	0x3ea960aa	0.3308156
14	0xbf4208cf	-0.7579469
15	0x3ede4655	0.43413034
16	0xbdbc787d	-0.09202669
17	0x3e3e4ca4	0.18583924
18	0x3e024404	0.12721258
19	0x3f3000cf	0.68751234
20	0x3deb766a	0.11497195
21	0x3eafd6cf	0.34343573
22	0xbdbcbab6	-0.092153
23	0x3ecc88a7	0.39948007
24	0xbdde233d	-0.10846565
25	0x3d1e384e	0.038627915
26	0xbe64cc24	-0.22343498
27	0x3eab2bf5	0.33431974
28	0xbe045dbe	-0.12926385
29	0x3ebeee23	0.3729106
30	0xbec57bea	-0.385711
31	0xbf5a623b	-0.8530614
32	0xbf85808e	-1.0429857
33	0xbf0d4bb0	-0.55193615
34	0xbf1c6ac0	-0.6110039
35	0xbea52fa8	-0.3226292
36	0x3e193735	0.14962466
37	0x3d840eb7	0.06448119
38	0x3d004bec	0.031322405
39	0x3e85b07c	0.2611121
40	0xbdee01fb	-0.116214715
41	0xbcfec80d	-0.031101251
42	0x3e6698d3	0.22519235
43	0x3e406663	0.18789057
44	0xbdaead72	-0.08529176
45	0x3ec94715	0.39312044
46	0x3e8bd19b	0.27308354
47	0x3f0ed97d	0.5580061
48	0xbf7a680b	-0.97815007
49	0xbedd1006	-0.43176287
50	0xbe1ac0f5	-0.1511267
51	0x3c0a1d69	0.0084298635
52	0x3ecfcbab	0.40585074
53	0x3ea04238	0.3130052
54	0x3e47b15f	0.19501255
55	0x3e3fea65	0.18741758
56	0x3e31a39a	0.17347565
57	0xbe8cee77	-0.27525684
58	0xbeb71e15	-0.35765138
59	0x3d4257bf	0.047446962
60	0xbe12df36	-0.1434296
61	0xbcd35e0f	-0.025801687
62	0xbeca0cb7	-0.39462826
63	0xbed84bcf	-0.42245337
64	0x3d90ac45	0.07064108
65	0x3e7de100	0.24792862
66	0x3e5eb347	0.21748076
67	0xbde7c5c6	-0.11317019
68	0xbd9bcf10	-0.076078534
69	0xbec67f34	-0.38768923
70	0xbdd7c856	-0.10536258
71	0xbeb5636d	-0.35427418
72	0xbe3b3b5d	-0.18284364
73	0xbd730d72	-0.059338994
74	0x3f1f54aa	0.6223856
75	0x3f7f9aee	0.9984578
76	0x3fec8094	1.8476739
77	0x3faf3dfb	1.369079
78	0x3eabfaab	0.33589682
79	0xbe433ab0	-0.19065356
80	0xbf24afd6	-0.64330804
81	0xbf2a1da7	-0.66451496
82	0xbe7af508	-0.24507535
83	0xbe96e3df	-0.29470727
84	0x3d605a92	0.054773875
85	0x3e5f8d35	0.2183121
86	0xbe9c8352	-0.3056894
87	0xbe130770	-0.14358306
88	0x3e8e6dbc	0.27818096
89	0x3e7a3cf0	0.24437308
90	0x3efa9eab	0.4894918
91	0x3f0edfc3	0.55810183
92	0x3e75bd8c	0.23998088
93	0xbcc720ed	-0.024307692
94	0xbe9797c8	-0.29607987
95	0xbf3494de	-0.70539653
96	0x3f6d6c1f	0.92743105
97	0x3eca30b2	0.39490277
98	0xbd6add94	-0.05734022
99	0xbed0809e	-0.40723127
100	0x3c0d34bf	0.008618533
101	0xbd31c262	-0.04339827
102	0xbeb32adb	-0.34993634
103	0xbee8cbf7	-0.45468113
104	0xbeeafd49	-0.45896366
105	0xbdd8993e	-0.10576104
106	0xbe73a013	-0.23791532
107	0xbee1cdb1	-0.44102243
108	0xbe1831e1	-0.14862777
109	0xbdcdcc39	-0.10048718
110	0x3eb6c865	0.35699764
111	0x3f20a205	0.6274722
112	0xbf46f36d	-0.7771519
113	0xbf16cd88	-0.58907366
114	0xbe7e51b9	-0.24835862
115	0x3c27de9b	0.010245944
116	0xbe08e1df	-0.13367413
117	0x3e436551	0.19081618
118	0x3df10b39	0.11769719
119	0xbca57cee	-0.020201173
120	0xbde3454f	-0.11097204
121	0x3db744ff	0.08948707
122	0xbf00126b	-0.50028104
123	0xbd73d6d7	-0.05953106
124	0xbecdaaeb	-0.40169463
125	0x3e2a7114	0.16644698
126	0x3f3e41da	0.7431923
127	0x3f69a1d9	0.91262585
128	0x3f70658c	0.9390495
129	0x3f4df698	0.804544
130	0xbdbd5482	-0.09244634
131	0xbc6d45c6	-0.014481967
132	0xbecd7f63	-0.4013625
133	0xbe240586	-0.16017732
134	0xbe8738d6	-0.2641055
135	0x3dd837a1	0.10557485
136	0x3df7d8dc	0.121019095
137	0x3efdd6b3	0.49577865
138	0x3f0ec543	0.5576975
139	0x3ec4d13c	0.38440883
140	0x3e1c12c1	0.15241529
141	0xbe89ac4a	-0.2688926
142	0x3d4f2463	0.05057181
143	0xbe0c7c44	-0.13719279
144	0x3f509275	0.81473476
145	0x3f0e3a8d	0.5555809
146	0x3e9ea5ec	0.30985963
147	0x3ea0b4a5	0.3138782
148	0x3e9ad9ae	0.302442
149	0x3e4bf435	0.19917376
150	0xbdd94598	-0.10608977
151	0xbe61aabe	-0.22037789
152	0x3c258917	0.010103486
153	0x3d3d7a66	0.046259306
154	0x3db930b4	0.090424925
155	0xbe72c3e2	-0.23707536
156	0xbed8334a	-0.4222663
157	0xbe9e853e	-0.3096103
158	0xbeac1696	-0.33610982
159	0xbf4c9a23	-0.79922694
160	0x3f1a225b	0.6020867
161	0x3e775d86	0.2415677
162	0x3ec42d50	0.3831582
163	0x3f0fea32	0.5621673
164	0x3e95badd	0.29244128
165	0x3eb02b83	0.34408197
166	0x3eb1210e	0.3459553
167	0x3dca5927	0.09880286
168	0xbe668122	-0.22510198
169	0x3c3f8a8c	0.011690747
170	0xbe712c7f	-0.2355213
171	0xbeb4279c	-0.3518647
172	0xbeca95fe	-0.3956756
173	0xbdf00e51	-0.11721481
174	0xbef68a29	-0.48152283
175	0xbf31a31b	-0.69389504
176	0x3ee0ef4d	0.43932572
177	0xbe772614	-0.2413562
178	0xbeb27884	-0.3485757
179	0xbf225dd6	-0.6342443
180	0xbf312d08	-0.6920934
181	0xbf216d1b	-0.63057107
182	0xbecd3f13	-0.40087184
183	0xbe51ac01	-0.2047577
184	0xbd977b0c	-0.07396516
185	0xbe5f0458	-0.21779001
186	0xbdfb0c05	-0.12258152
187	0x3ed27f2a	0.41112643
188	0x3e9db3af	0.3080115
189	0x3edf126f	0.4356875
190	0x3f1522e1	0.58256346
191	0x3eaa181c	0.3322152
192	0xbed0d8e9	-0.4079049
193	0xbea5b4c8	-0.32364488
194	0xbecea2a7	-0.4035847
195	0xbeea4fd6	-0.45764035
196	0x3da4220d	0.08014307
197	0x3ea01d9d	0.31272593
198	0x3e6d81fb	0.23194115
199	0x3ecde20d	0.40211526
200	0x3f25f0f5	0.64820796
201	0x3e6c2a33	0.23062973
202	0xbdbd1290	-0.09232056
203	0xbf076bd3	-0.528989
204	0xbdcd6d6c	-0.10030636
205	0x3df73bd8	0.12071961
206	0x3f739402	0.95147717
207	0x3eaf0085	0.34180084
208	0xbed7d30e	-0.4215321
209	0xbb008c4b	-0.001961487
210	0x3ec2a23c	0.380144
211	0x3d21f59d	0.039540876
212	0xbd799964	-0.0609373
213	0xbeb39b10	-0.3507924
214	0xbec8abf6	-0.39193696
215	0xbf5daf43	-0.86595553
216	0xbf3fe670	-0.74960995
217	0xbf838b25	-1.0276839
218	0xbe9da9e3	-0.30793676
219	0xbf1af9c8	-0.60537386
220	0xbec87fd2	-0.3916002
221	0xbea00f22	-0.31261545
222	0x3e1ba8e1	0.15201141
223	0x3da26ea8	0.07931262
224	0xbeca9653	-0.39567813
225	0xbebb723a	-0.36610585
226	0xbec43236	-0.38319558
227	0xbd4964f1	-0.04916853
228	0x3e0c1b97	0.136824
229	0xbddcf0ff	-0.10788154
230	0xbed9174a	-0.4240058
231	0xbe14ab27	-0.14518414
232	0xbeb5b791	-0.35491613
233	0xbd567284	-0.052355304
234	0x3dec096c	0.115252346
235	0x3ef43eae	0.4770407
236	0x3f489703	0.78355426
237	0x3f37408f	0.71582884
238	0x3e6595f3	0.22420482
239	0x3e7ff0eb	0.24994247
240	0x3f285a95	0.6576322
241	0x3eb33eb8	0.35008788
242	0x3dfb50d1	0.12271274
243	0xbf1bd9b2	-0.6087905
244	0xbf5db389	-0.86602074
245	0xbe9f9150	-0.31165552
246	0x3f0582d6	0.52152765
247	0x3f02d6de	0.5110911
248	0x3e412129	0.18860306
249	0xbd264da9	-0.040601406
250	0xbea37ebf	-0.31932637
251	0xbe144f81	-0.14483453
252	0xbe658729	-0.22414841
253	0x3dfa4baa	0.12221463
254	0x3ccbffdb	0.024902275
255	0x3e0f30e3	0.13983493

bias f4 [64]
0	0xbead1d5e	-0.33811468
1	0xbe2f5e35	-0.17125781
2	0x3e078a52	0.13236359
3	0x3de5fad1	0.1122948
4	0xbb6ee4fc	-0.0036452403
5	0xbe70005c	-0.23437637
6	0x3eafe57e	0.34354776
7	0x3e92b58c	0.28654134
8	0x3e06fc69	0.13182224
9	0x3c5f4347	0.01362688
10	0xbcdef397	-0.027215762
11	0x3eb35c53	0.35031375
12	0x3e64ddf7	0.22350298
13	0xbcb7402b	-0.022369465
14	0x3e6c159e	0.23055121
15	0x3d329834	0.043602183
16	0x3e870b6e	0.26375908
17	0xbe501e14	-0.20323974
18	0x3e8680c3	0.26270112
19	0xbeb4eaab	-0.35335287
20	0x3e30e0c2	0.17273238
21	0xbc61a214	-0.013771553
22	0xbe083d7c	-0.13304704
23	0x3f24a8bd	0.64319974
24	0xbe6bae14	-0.23015624
25	0xbbd8b43d	-0.006613283
26	0xbd985261	-0.074375875
27	0xbf186be9	-0.5953966
28	0x3e64ec56	0.2235578
29	0x3e47e21c	0.19519848
30	0xbe41b880	-0.18918037
31	0x3e066810	0.13125634
32	0x3de4ac23	0.11165645
33	0xbf083819	-0.532106
34	0x3e44c30d	0.19215031
35	0xbdca1796	-0.0986778
36	0xbdc48a04	-0.09596637
37	0xbee29377	-0.44253132
38	0xbddc8636	-0.10767786
39	0x3bf0b50b	0.0073458008
40	0xbd695751	-0.056968037
41	0x3e3bdb88	0.18345463
42	0xbe94b70c	-0.29045904
43	0x3debc505	0.11512188
44	0xbe3e15a5	-0.18562944
45	0xbeece2df	-0.4626684
46	0xbe239e57	-0.1597837
47	0xbd6e5108	-0.058182746
48	0xbea783a0	-0.3271761
49	0xbe40eef4	-0.18841153
50	0x3c00cee8	0.00786183
51	0xbea49e70	-0.32152128
52	0xbecd9fab	-0.4016088
53	0x3e60e9f8	0.21964252
54	0x3eac5e25	0.33665577
55	0xbdefcd87	-0.11709123
56	0xbe13d598	-0.14436948
57	0xbe8057f7	-0.25067112
58	0xbd8c3658	-0.06846303
59	0xbec9fea7	-0.39452097
60	0xbe5e5e2f	-0.21715616
61	0xbe7153ec	-0.2356717
62	0xbe23b575	-0.15987189
63	0xbe127b82	-0.14304927

weight f4 [64]
0	0x3fc5a16b	1.5439886
1	0x3f2de595	0.6792844
2	0x3f5fe6ed	0.8746174
3	0x3f7a6fc2	0.9782678
4	0x3f633c07	0.8876347
5	0x3f5f3987	0.87197155
6	0x3f968863	1.1760372
7	0x3f72f558	0.94905615
8	0x3f2590cf	0.64674085
9	0x3f99a0c6	1.2002189
10	0x3f44fe35	0.7695039
11	0x3f3a16ca	0.72691023
12	0x3f7c132d	0.9846676
13	0x3f49efec	0.78881717
14	0x3f231594	0.637048
15	0x3f037662	0.5135251
16	0x3f827662	1.0192378
17	0x3f5d6bb9	0.86492497
18	0x3f5c60bc	0.86085105
19	0x3f720e2d	0.9455288
20	0x3f8ea268	1.1143312
21	0x3f4b6f00	0.7946625
22	0x3f94bef3	1.1620773
23	0x3f8e7b56	1.1131389
24	0x3f12936b	0.5725619
25	0x3f0f346f	0.5593938
26	0x3f522908	0.8209386
27	0x3f8c966b	1.0983404
28	0x3f48b24b	0.78397053
29	0x3f88f4f4	1.0699754
30	0x3f3a9e6d	0.7289799
31	0x3f4014db	0.7503182
32	0x3f2e2e65	0.6803954
33	0x3f935169	1.150922
34	0x3efd671f	0.49492738
35	0x3f519ad8	0.818769
36	0x3f224e32	0.63400567
37	0x3f5b8423	0.857485
38	0x3f4e6a1b	0.80630654
39	0x3f702c7f	0.93817896
40	0x3f434fbe	0.7629355
41	0x3f34d680	0.706398
42	0x3f711de4	0.94186234
43	0x3f62a942	0.88539517
44	0x3f672d43	0.9030344
45	0x3f35232a	0.7075678
46	0x3fa27d1e	1.2694433
47	0x3fa7f6f9	1.3122245
48	0x3f43ecb1	0.7653304
49	0x3f1a027a	0.6016003
50	0x3f1a0d49	0.6017652
51	0x3f7cb00d	0.9870613
52	0x3f3df824	0.7420676
53	0x3f282eb0	0.6569624
54	0x3fb13000	1.3842773
55	0x3f0d443e	0.55182254
56	0x3fa7040a	1.3048108
57	0x3f27b691	0.6551295
58	0x3f686c54	0.90790296
59	0x3f4a3841	0.78992087
60	0x3f75d564	0.96028733
61	0x3f875280	1.0572052
62	0x3f3dcc51	0.7413989
63	0x3f928eee	1.1449869

bias f4 [64]
0	0x3f5e7242	0.86893094
1	0xbd269538	-0.04066965
2	0xbe090442	-0.1338053
3	0xbc839098	-0.016060159
4	0xbd64afef	-0.055831846
5	0xbecc2bac	-0.3987707
6	0x3d1fc490	0.039005816
7	0x3d5caee1	0.053877715
8	0x3d3eeb1a	0.04661093
9	0x3db96004	0.09051517
10	0x3df08dcf	0.11745798
11	0xbdb80f14	-0.08987251
12	0xbf339321	-0.70146376
13	0xbf161eb5	-0.58640605
14	0xbe98e7e5	-0.2986442
15	0xbf59c7ff	-0.85070795
16	0xbef4e413	-0.47830257
17	0x3d5470b2	0.051865287
18	0x3e53be40	0.20678043
19	0x3ea15708	0.31511712
20	0xbca65b5b	-0.020307234
21	0xbdff0e01	-0.12453843
22	0xbde29746	-0.11064009
23	0xbe27c4b3	-0.16383629
24	0x3dd6d9d1	0.10490764
25	0xbf3df4f7	-0.7420191
26	0xbeb74a7e	-0.3579902
27	0xbf21b09e	-0.6316012
28	0xbef92da3	-0.4866763
29	0xbed81b3a	-0.42208272
30	0xbef2dfaf	-0.47436282
31	0xbecd4054	-0.4008814
32	0xbf28a110	-0.6587076
33	0x3dfdb869	0.12388689
34	0xbe912f19	-0.28356245
35	0xbf01d59d	-0.50716573
36	0x3d9e74f1	0.077371486
37	0xbf596982	-0.8492662
38	0x3e017c0a	0.12644973
39	0xbd85b918	-0.065294445
40	0x3e38bdd5	0.18041165
41	0xbe807c7a	-0.25094968
42	0xbf235601	-0.63803107
43	0x3e060f29	0.1309172
44	0xbf572e14	-0.84054685
45	0x3d6a7426	0.057239674
46	0xbe26c15a	-0.16284695
47	0xbe4c6365	-0.19959791
48	0xbfa41dd8	-1.2821608
49	0xbea4c350	-0.32180262
50	0xbd39b687	-0.045340087
51	0xbe3af519	-0.1825756
52	0xbf0c62f7	-0.5483851
53	0xbea30309	-0.31838253
54	0xbe4820df	-0.1954379
55	0xbd941fb9	-0.07232613
56	0xbf4c56de	-0.7982005
57	0xbf090caf	-0.5353498
58	0xbf275b65	-0.6537383
59	0xbe869971	-0.26288942
60	0xbeb52c41	-0.35385326
61	0xbead831a	-0.33889085
62	0xbdaa1262	-0.083042875
63	0xbf23868c	-0.6387718

running_mean f4 [64]
0	0xbeb2cee1	-0.3492346
1	0xbe55bae4	-0.20872074
2	0x3e3eb8a3	0.18625121
3	0x3d9e5616	0.07731263
4	0x3de4de75	0.11175243
5	0xbe702f7f	-0.23455618
6	0x3eb455b2	0.3522163
7	0x3eac4ae2	0.3365088
8	0x3e119e1d	0.14220472
9	0xbd6ab5fe	-0.057302468
10	0xbdd0937d	-0.10184381
11	0x3ed2ca54	0.4116999
12	0x3e88bc54	0.26706183
13	0xbd82c425	-0.06385068
14	0x3e99baea	0.30025417
15	0x3d269edd	0.040678848
16	0x3e919fa2	0.28442103
17	0xbe947ba9	-0.29000595
18	0x3e88a397	0.2668731
19	0xbe8c20b8	-0.27368712
20	0x3d918baa	0.07106717
21	0x3d7d90d3	0.061905693
22	0xbdc219b1	-0.094775565
23	0x3f1ad1ef	0.60476583
24	0xbe9b32f8	-0.30312324
25	0x3dcd3f28	0.10021812
26	0xbe55c0a4	-0.20874268
27	0xbf07f71a	-0.5311142
28	0x3e5f1bdf	0.21787976
29	0x3e4016a3	0.18758635
30	0xbe18592b	-0.14877765
31	0x3dcd5f31	0.10027922
32	0x3dc8dd0c	0.09807786
33	0xbf065574	-0.5247414
34	0x3e0e2001	0.13879396
35	0xbd865b01	-0.06560326
36	0xbd738019	-0.059448335
37	0xbf028493	-0.5098354
38	0xbe4fb5f1	-0.20284249
39	0x3d9a760e	0.075420484
40	0xbe5ccb0b	-0.2156183
41	0x3e394e00	0.18096161
42	0xbec07b32	-0.3759399
43	0x3d5b5552	0.053548165
44	0xbe06e928	-0.1317488
45	0xbf00212f	-0.50050634
46	0xbe64352d	-0.2228591
47	0xbdeede70	-0.1166352
48	0xbeba0e7b	-0.36339173
49	0xbe81ac29	-0.2532666
50	0x3d8e95d1	0.06962169
51	0xbeb3963b	-0.35075554
52	0xbecaeecb	-0.3963531
53	0x3e7968af	0.2435634
54	0x3ecd39e2	0.40083224
55	0xbe39c599	-0.18141784
56	0xbdeebb64	-0.11656836
57	0xbe6aed43	-0.2294207
58	0x3d11f952	0.03563816
59	0xbeb27b82	-0.34859854
60	0xbea47953	-0.32123813
61	0xbe9048e8	-0.28180623
62	0xbe63d693	-0.22249822
63	0xbe58abd2	-0.21159294

running_var f4 [64]
0	0x3e2cbcf3	0.16868953
1	0x3f819f9d	1.0126835
2	0x3fe9a1cc	1.8252501
3	0x403b892d	2.9302475
4	0x418a54c8	17.291397
5	0x3fd7d3ec	1.6861548
6	0x3f44dbe2	0.76898015
7	0x3faa8fdc	1.3325152
8	0x409697b8	4.7060204
9	0x3fe9e8c1	1.8274156
10	0x3ffd4aff	1.9788512
11	0x40217dd7	2.5233057
12	0x3fcfd917	1.6238126
13	0x41b1eb14	22.239784
14	0x3fadd9a1	1.358204
15	0x3ddfee62	0.1093414
16	0x40501c76	3.251737
17	0x40a21e5f	5.0662074
18	0x3f4ba2d2	0.7954532
19	0x40163ab1	2.3473322
20	0x41301f0f	11.007583
21	0x418c4c4d	17.537256
22	0x413aa5fe	11.665525
23	0x401a6f7d	2.4130547
24	0x3ff5411b	1.9160494
25	0x41c343f5	24.408182
26	0x4127a604	10.478031
27	0x409c1539	4.8775907
28	0x3fac56e2	1.3464015
29	0x42638b08	56.885773
30	0x40548af6	3.3209815
31	0x40236d64	2.5535517
32	0x3f0f0406	0.55865514
33	0x3e33fe15	0.17577393
34	0x3f755892	0.9583827
35	0x404894cb	3.1340816
36	0x3f2d49c5	0.6769069
37	0x3fe7f07a	1.8120263
38	0x4032129b	2.7823856
39	0x409c393c	4.8819866
40	0x41f5d9af	30.73129
41	0x3f5b67c8	0.8570523
42	0x404d3235	3.2061894
43	0x3fc86cef	1.5658244
44	0x41afc42a	21.970783
45	0x413a90d0	11.660355
46	0x3fcb13d0	1.5865421
47	0x40a3bc27	5.116718
48	0x412ac76c	10.673687
49	0x41d05f33	26.046484
50	0x40702841	3.752457
51	0x40b0b85e	5.5225058
52	0x3e9ecee0	0.31017208
53	0x4202e50f	32.72369
54	0x40b29fc0	5.5820007
55	0x41df066f	27.878141
56	0x403d63cf	2.9592168
57	0x3fbe51ab	1.4868673
58	0x40a10b5c	5.0326366
59	0x4058a26b	3.3849132
60	0x40a8c5f4	5.274164
61	0x40b255ea	5.5729876
62	0x409de007	4.933597
63	0x4043cbc6	3.0593123

weight f4 [64]
0	0x3f800000	1.0
1	0x3f800000	1.0
2	0x3f800000	1.0
3	0x3f800000	1.0
4	0x3f800000	1.0
5	0x3f800000	1.0
6	0x3f800000	1.0
7	0x3f800000	1.0
8	0x3f800000	1.0
9	0x3f800000	1.0
10	0x3f800000	1.0
11	0x3f800000	1.0
12	0x3f800000	1.0
13	0x3f800000	1.0
14	0x3f800000	1.0
15	0x3f800000	1.0
16	0x3f800000	1.0
17	0x3f800000	1.0
18	0x3f800000	1.0
19	0x3f800000	1.0
20	0x3f800000	1.0
21	0x3f800000	1.0
22	0x3f800000	1.0
23	0x3f800000	1.0
24	0x3f800000	1.0
25	0x3f800000	1.0
26	0x3f800000	1.0
27	0x3f800000	1.0
28	0x3f800000	1.0
29	0x3f800000	1.0
30	0x3f800000	1.0
31	0x3f800000	1.0
32	0x3f800000	1.0
33	0x3f800000	1.0
34	0x3f800000	1.0
35	0x3f800000	1.0
36	0x3f800000	1.0
37	0x3f800000	1.0
38	0x3f800000	1.0
39	0x3f800000	1.0
40	0x3f800000	1.0
41	0x3f800000	1.0
42	0x3f800000	1.0
43	0x3f800000	1.0
44	0x3f800000	1.0
45	0x3f800000	1.0
46	0x3f800000	1.0
47	0x3f800000	1.0
48	0x3f800000	1.0
49	0x3f800000	1.0
50	0x3f800000	1.0
51	0x3f800000	1.0
52	0x3f800000	1.0
53	0x3f800000	1.0
54	0x3f800000	1.0
55	0x3f800000	1.0
56	0x3f800000	1.0
57	0x3f800000	1.0
58	0x3f800000	1.0
59	0x3f800000	1.0
60	0x3f800000	1.0
61	0x3f800000	1.0
62	0x3f800000	1.0
63	0x3f800000	1.0

bias f4 [64]
0	0x00000000	0.0
1	0x00000000	0.0
2	0x00000000	0.0
3	0x00000000	0.0
4	0x00000000	0.0
5	0x00000000	0.0
6	0x00000000	0.0
7	0x00000000	0.0
8	0x00000000	0.0
9	0x00000000	0.0
10	0x00000000	0.0
11	0x00000000	0.0
12	0x00000000	0.0
13	0x00000000	0.0
14	0x00000000	0.0
15	0x00000000	0.0
16	0x00000000	0.0
17	0x00000000	0.0
18	0x00000000	0.0
19	0x00000000	0.0
20	0x00000000	0.0
21	0x00000000	0.0
22	0x00000000	0.0
23	0x00000000	0.0
24	0x00000000	0.0
25	0x00000000	0.0
26	0x00000000	0.0
27	0x00000000	0.0
28	0x00000000	0.0
29	0x00000000	0.0
30	0x00000000	0.0
31	0x00000000	0.0
32	0x00000000	0.0
33	0x00000000	0.0
34	0x00000000	0.0
35	0x00000000	0.0
36	0x00000000	0.0
37	0x00000000	0.0
38	0x00000000	0.0
39	0x00000000	0.0
40	0x00000000	0.0
41	0x00000000	0.0
42	0x00000000	0.0
43	0x00000000	0.0
44	0x00000000	0.0
45	0x00000000	0.0
46	0x00000000	0.0
47	0x00000000	0.0
48	0x00000000	0.0
49	0x00000000	0.0
50	0x00000000	0.0
51	0x00000000	0.0
52	0x00000000	0.0
53	0x00000000	0.0
54	0x00000000	0.0
55	0x00000000	0.0
56	0x00000000	0.0
57	0x00000000	0.0
58	0x00000000	0.0
59	0x00000000	0.0
60	0x00000000	0.0
61	0x00000000	0.0
62	0x00000000	0.0
63	0x00000000	0.0

running_mean f4 [64]
0	0x00000000	0.0
1	0x00000000	0.0
2	0x00000000	0.0
3	0x00000000	0.0
4	0x00000000	0.0
5	0x00000000	0.0
6	0x00000000	0.0
7	0x00000000	0.0
8	0x00000000	0.0
9	0x00000000	0.0
10	0x00000000	0.0
11	0x00000000	0.0
12	0x00000000	0.0
13	0x00000000	0.0
14	0x00000000	0.0
15	0x00000000	0.0
16	0x00000000	0.0
17	0x00000000	0.0
18	0x00000000	0.0
19	0x00000000	0.0
20	0x00000000	0.0
21	0x00000000	0.0
22	0x00000000	0.0
23	0x00000000	0.0
24	0x00000000	0.0
25	0x00000000	0.0
26	0x00000000	0.0
27	0x00000000	0.0
28	0x00000000	0.0
29	0x00000000	0.0
30	0x00000000	0.0
31	0x00000000	0.0
32	0x00000000	0.0
33	0x00000000	0.0
34	0x00000000	0.0
35	0x00000000	0.0
36	0x00000000	0.0
37	0x00000000	0.0
38	0x00000000	0.0
39	0x00000000	0.0
40	0x00000000	0.0
41	0x00000000	0.0
42	0x00000000	0.0
43	0x00000000	0.0
44	0x00000000	0.0
45	0x00000000	0.0
46	0x00000000	0.0
47	0x00000000	0.0
48	0x00000000	0.0
49	0x00000000	0.0
50	0x00000000	0.0
51	0x00000000	0.0
52	0x00000000	0.0
53	0x00000000	0.0
54	0x00000000	0.0
55	0x00000000	0.0
56	0x00000000	0.0
57	0x00000000	0.0
58	0x00000000	0.0
59	0x00000000	0.0
60	0x00000000	0.0
61	0x00000000	0.0
62	0x00000000	0.0
63	0x00000000	0.0

running_var f4 [64]
0	0x3f800000	1.0
1	0x3f800000	1.0
2	0x3f800000	1.0
3	0x3f800000	1.0
4	0x3f800000	1.0
5	0x3f800000	1.0
6	0x3f800000	1.0
7	0x3f800000	1.0
8	0x3f800000	1.0
9	0x3f800000	1.0
10	0x3f800000	1.0
11	0x3f800000	1.0
12	0x3f800000	1.0
13	0x3f800000	1.0
14	0x3f800000	1.0
15	0x3f800000	1.0
16	0x3f800000	1.0
17	0x3f800000	1.0
18	0x3f800000	1.0
19	0x3f800000	1.0
20	0x3f800000	1.0
21	0x3f800000	1.0
22	0x3f800000	1.0
23	0x3f800000	1.0
24	0x3f800000	1.0
25	0x3f800000	1.0
26	0x3f800000	1.0
27	0x3f800000	1.0
28	0x3f800000	1.0
29	0x3f800000	1.0
30	0x3f800000	1.0
31	0x3f800000	1.0
32	0x3f800000	1.0
33	0x3f800000	1.0
34	0x3f800000	1.0
35	0x3f800000	1.0
36	0x3f800000	1.0
37	0x3f800000	1.0
38	0x3f800000	1.0
39	0x3f800000	1.0
40	0x3f800000	1.0
41	0x3f800000	1.0
42	0x3f800000	1.0
43	0x3f800000	1.0
44	0x3f800000	1.0
45	0x3f800000	1.0
46	0x3f800000	1.0
47	0x3f800000	1.0
48	0x3f800000	1.0
49	0x3f800000	1.0
50	0x3f800000	1.0
51	0x3f800000	1.0
52	0x3f800000	1.0
53	0x3f800000	1.0
54	0x3f800000	1.0
55	0x3f800000	1.0
56	0x3f800000	1.0
57	0x3f800000	1.0
58	0x3f800000	1.0
59	0x3f800000	1.0
60	0x3f800000	1.0
61	0x3f800000	1.0
62	0x3f800000	1.0
63	0x3f800000	1.0

weight f4 [64, 4, 16]
0	0xbf05c9db	-0.5226113
1	0x3ebe4d84	0.37168515
2	0xbf010466	-0.50397336
3	0x3e5c35b8	0.21504867
4	0xbea75228	-0.32679868
5	0x3dd01490	0.10160172
6	0xbe4c0ef8	-0.19927585
7	0x3bdaaf8e	0.00667376
8	0xbe5c2c28	-0.2150122
9	0x3e9198eb	0.2843698
10	0xbeb5584d	-0.3541893
11	0x3f05cc3d	0.5226477
12	0xbefd5cb6	-0.49484795
13	0x3f1e9564	0.619467
14	0xbf44c095	-0.76856357
15	0x3f0b4c6e	0.544135
16	0xbf2d7dd0	-0.677701
17	0xbec74156	-0.38917035
18	0xbed55ee7	-0.41673967
19	0xbe128c50	-0.14311337
20	0xbec549c2	-0.38532835
21	0xbe623455	-0.22090276
22	0xbee573b8	-0.4481485
23	0xbed10710	-0.408257
24	0xbedaf0bc	-0.4276179
25	0xbe47bb24	-0.19504982
26	0xbe92f63f	-0.28703496
27	0xbe2df3eb	-0.16987579
28	0xbeab22dc	-0.33425033
29	0xbef97f05	-0.4872972
30	0xbf2d615e	-0.67726696
31	0xbf5f9878	-0.87342024
32	0xbf89f641	-1.0778276
33	0xbea7d614	-0.32780516
34	0xbee8511b	-0.4537438
35	0xbd9e39fa	-0.07725902
36	0xbd4fb06a	-0.05070535
37	0xbd52e40b	-0.05148701
38	0x3e46923f	0.19391726
39	0x3e13bb47	0.1442691
40	0xbcd6f099	-0.026237773
41	0xbda4c2d2	-0.080449715
42	0xbe97001d	-0.29492274
43	0xbeac6106	-0.33667773
44	0xbe03d61c	-0.12874645
45	0x3ce24da0	0.027624905
46	0x3c06e41c	0.008233096
47	0x3edacfad	0.4273657
48	0x3e639735	0.2222565
49	0x3e7133e9	0.23554958
50	0xbe064b55	-0.13114674
51	0x3e7e35d1	0.24825217
52	0x3d9c70d5	0.076387085
53	0x3e546714	0.20742446
54	0x3e141556	0.14461264
55	0x3e3e8f25	0.18609293
56	0x3e085770	0.13314605
57	0x3dce92dd	0.10086606
58	0x3cc0d69d	0.023539836
59	0x3d6b101f	0.05738842
60	0xbe2321f1	-0.15930916
61	0xbdee547d	-0.116372086
62	0xbe43fea5	-0.19140108
63	0xbed55cc3	-0.41672334
64	0x3e744e47	0.23857985
65	0x3e00a692	0.12563542
66	0x3dcd7fc9	0.10034139
67	0x3d5ebc16	0.05437859
68	0x3dd7106b	0.10501178
69	0x3e0f5958	0.13998926
70	0x3d2709ad	0.040780712
71	0xbd44f15f	-0.048081752
72	0xbe1b050b	-0.15138642
73	0xbe426687	-0.18984424
74	0xbcc9c15c	-0.024628334
75	0xbe037021	-0.12835743
76	0x3e607551	0.21919753
77	0x3d475330	0.04866332
78	0xbde75be8	-0.112968266
79	0xbe38deae	-0.18053696
80	0x3ef95c06	0.4870302
81	0x3ef5af50	0.47985315
82	0x3ead9e0d	0.33909646
83	0x3f00110a	0.50026
84	0x3ecfa9aa	0.4055913
85	0x3ede93cf	0.43472144
86	0x3f148874	0.5802071
87	0x3ed04fce	0.40685886
88	0x3e6424c2	0.22279647
89	0xbe3a4767	-0.181913
90	0xbf146248	-0.57962465
91	0xbf5e8c11	-0.86932474
92	0xbf52cfd4	-0.8234837
93	0xbf124e19	-0.5715042
94	0xbeec1320	-0.4610834
95	0xbf2add08	-0.66743517
96	0xbedb05a9	-0.42777756
97	0xbed449a8	-0.41462445
98	0xbf042956	-0.51625574
99	0xbed345ce	-0.41264194
100	0xbeb2a40c	-0.34890783
101	0xbc9d366f	-0.019190995
102	0x3e44a93c	0.19205183
103	0x3ec9a5ca	0.393843
104	0x3f01a77c	0.50646186
105	0x3ef96194	0.4870726
106	0x3ee3dc89	0.44504192
107	0x3ea81c75	0.3283421
108	0x3e6c2107	0.23059474
109	0x3e09f3cb	0.13471906
110	0x3d8d87aa	0.069106415
111	0x3eea3b8c	0.45748556
112	0x3f8221aa	1.0166523
113	0x3f4a15ee	0.7893971
114	0x3ec50990	0.38483858
115	0x3e387dc0	0.1801672
116	0x3e78b3b8	0.24287307
117	0x3c9f1d84	0.019423254
118	0xbd4561bf	-0.04818892
119	0xbe626045	-0.22107036
120	0xbe93ff97	-0.28905937
121	0xbedf6089	-0.43628338
122	0xbeb57bc2	-0.35445982
123	0xbf0f66a2	-0.5601598
124	0xbf26c737	-0.6514773
125	0xbf61d3e1	-0.88213927
126	0xbf799f05	-0.9750827
127	0xbf72e2df	-0.9487743
128	0x3e43f473	0.19136219
129	0xbf4b1231	-0.7932463
130	0x3edfd48d	0.4371685
131	0xbeaab21d	-0.33339015
132	0x3ea4f8ea	0.32221156
133	0xbed97b89	-0.42477062
134	0x3e6b8b69	0.230024
135	0xbef725e7	-0.48271105
136	0x3bfe40d9	0.0077591953
137	0xbed61299	-0.41811064
138	0x3e40ff5c	0.18847412
139	0xbe7da51d	-0.24770017
140	0x3e23ef68	0.16009295
141	0xbe1a05a3	-0.15041213
142	0x3e81ae37	0.25328228
143	0xbe57ab08	-0.21061337
144	0xbe140f6d	-0.1445901
145	0xbe8dd312	-0.27700096
146	0xbe1ce4c1	-0.15321638
147	0xbe573640	-0.21016788
148	0xbe025669	-0.12728275
149	0xbe2576fc	-0.1615867
150	0xbedd3d47	-0.43210813
151	0xbf3b407a	-0.7314526
152	0xbf58cbbf	-0.8468589
153	0xbe8442e4	-0.25832283
154	0xbf054529	-0.52058655
155	0xbe4b68b0	-0.19864154
156	0xbf0b8cc2	-0.54511654
157	0xbedda043	-0.43286332
158	0xbefa8957	-0.48932907
159	0xbf29b691	-0.662942
160	0xbf56c0b8	-0.83887815
161	0xbf0729f1	-0.5279837
162	0xbdfea86e	-0.12434469
163	0x3de270e5	0.11056689
164	0xbd3d54f6	-0.046223603
165	0x3e735c84	0.2376576
166	0xbe4f6695	-0.20253976
167	0x3d9a891d	0.075456835
168	0xbe891531	-0.2677398
169	0xbe057eee	-0.13036701
170	0xbf226cd9	-0.6344734
171	0xbeb1ce40	-0.3472767
172	0xbf119ece	-0.5688294
173	0xbf329639	-0.6976047
174	0xbf70baf7	-0.94035286
175	0xbfb8f641	-1.4450151
176	0x3ec1d1d0	0.37855387
177	0x3ef3c196	0.47608632
178	0x3eb5cd22	0.35508066
179	0x3e973f49	0.2954047
180	0xbc83a980	-0.016072035
181	0x3a54b02e	0.0008113411
182	0xbe65351f	-0.22383545
183	0xbe09f2fb	-0.13471596
184	0xbe1df9c6	-0.15427312
185	0xbd040d48	-0.03223923
186	0xbdd152f3	-0.102208994
187	0xbc1bbb5f	-0.009505122
188	0x3c54e7ed	0.012994749
189	0x3c131b59	0.008978688
190	0xbded89a9	-0.11598522
191	0xbd1a5b0c	-0.037684485
192	0xbc1dc12b	-0.009628574
193	0xbf119107	-0.5686192
194	0x3eb77a6c	0.35835588
195	0xbf0fa778	-0.5611491
196	0x3efce08a	0.4939006
197	0xbf3907a3	-0.7227728
198	0x3efd5907	0.49481985
199	0xbf3301df	-0.6992473
200	0x3ea67c38	0.32516646
201	0xbefd8181	-0.49512866
202	0x3e47abc5	0.19499119
203	0xbefbe4f3	-0.49198112
204	0x3eb7cb0e	0.35897106
205	0xbee822aa	-0.45338947
206	0x3eec4460	0.46145916
207	0xbeff82e7	-0.49904558
208	0xbe63c320	-0.22242403
209	0xbee17044	-0.44030964
210	0xbe37e002	-0.17956546
211	0xbe9ada30	-0.3024459
212	0x3dfdfcdb	0.12401744
213	0xbdd2c7a5	-0.102919854
214	0x3defd543	0.11710598
215	0xbd8e0e98	-0.06936377
216	0xbcc307f2	-0.0238075
217	0xbe33bdb8	-0.1755284
218	0xbd5687e2	-0.05237568
219	0x3c8e6e63	0.01738662
220	0xbe068f4c	-0.13140601
221	0x3def4d2d	0.11684642
222	0xbe7a8f1e	-0.24468657
223	0xbe733549	-0.23750795
224	0xbeb06cfa	-0.34458143
225	0xbef7024a	-0.48243934
226	0xbe518c90	-0.20463777
227	0xbe7c54bf	-0.24641703
228	0xbd9b6893	-0.07588305
229	0xbe2f6f21	-0.17132236
230	0xbce29328	-0.02765806
231	0x3cae463e	0.021273728
232	0x3d3e31f6	0.046434365
233	0x3d433c4b	0.04766492
234	0x3ca568bb	0.020191541
235	0xbe177659	-0.1479124
236	0xbe275b0a	-0.16343322
237	0xbe1f1adb	-0.15537588
238	0x3dbeb3ba	0.09311624
239	0xbdd77f67	-0.10522347
240	0x3efa6a6e	0.48909324
241	0x3ea392c6	0.31947917
242	0x3ed3a6b5	0.41338125
243	0x3ed5d804	0.4176637
244	0x3ed0cf63	0.40783224
245	0x3e576f12	0.21038464
246	0x3e6a53fc	0.228836
247	0x3e63a7f8	0.22232044
248	0x3e5e711d	0.21722837
249	0x3e58b844	0.21164042
250	0x3e34e00e	0.17663595
251	0x3dc3d0d8	0.09561318
252	0x3baf255d	0.00534503
253	0xbc913116	-0.017723601
254	0xbe04d05a	-0.12970105
255	0xbcf92f46	-0.03041805

bias f4 [64]
0	0x3e44805b	0.19189589
1	0xbe1b19b8	-0.1514653
2	0x3dae5bc3	0.08513596
3	0xbd85848c	-0.06519422
4	0xbde1b663	-0.11021116
5	0x3e138f89	0.14410223
6	0xbd8ddc90	-0.069268346
7	0xbc97410f	-0.01846364
8	0x3cbec168	0.023285583
9	0xbe347d42	-0.17625907
10	0xbe7b2a76	-0.24527916
11	0xbdc22eb2	-0.09481563
12	0x3cc8c6a6	0.024508785
13	0xbe21db7f	-0.15806387
14	0x3d908734	0.07057038
15	0x3e2163c7	0.15760718
16	0x3bc284a6	0.005936223
17	0x3ef7b809	0.48382595
18	0xbe30c513	-0.17262678
19	0xbd783158	-0.060593933
20	0x3dea107c	0.114289254
21	0xbd768dca	-0.060193814
22	0x3d762ff5	0.06010433
23	0xbbf99d80	-0.0076176524
24	0x3e6570da	0.2240633
25	0xbe35ac75	-0.17741568
26	0x3e6c78dc	0.23092979
27	0xbdd09251	-0.10184158
28	0x3e5b0f37	0.21392523
29	0x3d95d125	0.07315282
30	0x3db7b802	0.089706436
31	0xbc66c4a7	-0.0140849715
32	0x3bea514a	0.0071508037
33	0x3db79d26	0.089655206
34	0xbdf1e18a	-0.11810596
35	0x3dfb367e	0.12266253
36	0xbda09615	-0.07841126
37	0xbe5ea1b2	-0.2174137
38	0xbda8ccf3	-0.08242216
39	0x3dd68143	0.104738735
40	0xbccad967	-0.024761869
41	0x3d71604e	0.058929734
42	0x3d51f178	0.051255673
43	0x3d0efe6a	0.034910597
44	0x3c22afb1	0.009929583
45	0x3d635ab8	0.055506438
46	0x3d4c3782	0.049857624
47	0xbe47751b	-0.19478266
48	0xbe200301	-0.15626146
49	0x3ccbf9cd	0.024899388
50	0x3da77109	0.081758566
51	0x3e5c1ed5	0.21496136
52	0x3e25a675	0.1617678
53	0x3c1809c9	0.009279677
54	0xbdefec45	-0.11714987
55	0x3cfb7cd7	0.030699177
56	0xbda1b99a	-0.07896729
57	0x3d9353c2	0.0719371
58	0xbc82762a	-0.015925486
59	0xbd0559a7	-0.032556202
60	0xbe28bd0a	-0.16478363
61	0x3d6a57a3	0.057212483
62	0xbc7452e5	-0.014912342
63	0xbdec2152	-0.11529793

weight f4 [64]
0	0x3f81b5b6	1.0133579
1	0x3f4e8a2b	0.8067958
2	0x3f6152ed	0.8801716
3	0x3f501f31	0.81297594
4	0x3fb84919	1.4397308
5	0x3f4d8db4	0.80294347
6	0x3f9792c1	1.1841661
7	0x3f811432	1.0084288
8	0x3f6e505a	0.93091357
9	0x3f89c70d	1.076387
10	0x3f6c6274	0.9233773
11	0x3f5bdf73	0.8588783
12	0x3f8d728c	1.1050582
13	0x3f8f6118	1.1201506
14	0x3f8ab874	1.0837541
15	0x3f874b40	1.056984
16	0x3fb4addc	1.4115558
17	0x3ffa613a	1.9560921
18	0x3f99c3b9	1.2012855
19	0x3f63df7d	0.8901289
20	0x3f4585d5	0.77157336
21	0x3f485815	0.782594
22	0x3f82d542	1.0221331
23	0x3f8233d2	1.0172064
24	0x3f997bff	1.1990966
25	0x3f75f9b1	0.96084124
26	0x3f9bb575	1.2164751
27	0x3f6fb06b	0.9362857
28	0x3f75fdf7	0.96090645
29	0x3f5bb355	0.85820514
30	0x3f59cfe5	0.85082847
31	0x3f799851	0.9749804
32	0x3f418fff	0.75610346
33	0x3f5ed3f4	0.87042165
34	0x3f946f05	1.159638
35	0x3f71e9b4	0.9449723
36	0x3f68f633	0.9100067
37	0x3f75c255	0.9599965
38	0x3f6da80d	0.9283455
39	0x3f749125	0.9553397
40	0x3f9f7a1d	1.2459141
41	0x3ed65927	0.41864893
42	0x3fa3a15d	1.2783619
43	0x3f548890	0.8302088
44	0x3f5e0500	0.8672638
45	0x3f2e6367	0.68120426
46	0x3f78cb4f	0.97185224
47	0x3f46fb31	0.7772704
48	0x3f6deae4	0.9293654
49	0x3f454864	0.77063584
50	0x3f116268	0.5679078
51	0x3f72a596	0.94783914
52	0x3f72aa2d	0.9479092
53	0x3f478f2b	0.7795283
54	0x3f533651	0.82504755
55	0x3f932378	1.1495199
56	0x3f5ed885	0.8704913
57	0x3f2b9e51	0.67038447
58	0x3f4e465e	0.8057612
59	0x3f521a22	0.82071126
60	0x3f57155a	0.84016955
61	0x3f29a95f	0.66274065
62	0x3f2df728	0.67955256
63	0x3f1f9d7a	0.62349665

bias f4 [64]
0	0xbed23028	-0.41052365
1	0xbfb520bc	-1.4150615
2	0xbf36e8ed	-0.71449167
3	0xbefb2eed	-0.4905924
4	0xbeb8c8f7	-0.36090824
5	0xbf10d77c	-0.56578803
6	0xbe916b6f	-0.28402278
7	0x3e82182c	0.25409067
8	0xbf269d73	-0.65084
9	0xbf54fcfc	-0.83198524
10	0xbf0a01dc	-0.5390909
11	0xbed4da0e	-0.41572613
12	0xbef64521	-0.48099616
13	0xbf2eee14	-0.6833203
14	0xbf61c939	-0.88197666
15	0xbf6f3762	-0.9344388
16	0xbe7c335f	-0.24628972
17	0xbd950f49	-0.07278306
18	0xbf0b11cd	-0.54324037
19	0xbf771f0d	-0.96531755
20	0xbf66022c	-0.89847064
21	0xbed1155a	-0.40836602
22	0xbf85e4a2	-1.0460398
23	0xbf7bdd0d	-0.9838417
24	0xbf5a187a	-0.851936
25	0xbd349acf	-0.04409295
26	0xbf351fcf	-0.7075166
27	0xbe9e0dcb	-0.30869898
28	0xbf499d9c	-0.7875612
29	0xbf76149d	-0.96125203
30	0xbfb0c39e	-1.3809698
31	0xbf545afa	-0.8295132
32	0xbeece557	-0.46268722
33	0xbfa92a91	-1.3216115
34	0xbef383e6	-0.47561568
35	0xbf53b37f	-0.82695764
36	0xbf226da1	-0.6344853
37	0xbf512cf6	-0.8170923
38	0xbfcbebdf	-1.5931357
39	0xbf79d8b4	-0.9759629
40	0xbf3cf5ce	-0.7381257
41	0xbf74d30a	-0.9563452
42	0xbe9d3f21	-0.30712226
43	0xbf12beb2	-0.5732223
44	0xbf2285cb	-0.634854
45	0xbf1c8cf7	-0.61152595
46	0xbf20512b	-0.6262385
47	0xbed39761	-0.4132643
48	0xbf5de358	-0.86675024
49	0xbeccaa9b	-0.39973912
50	0xbfad5e5c	-1.3544421
51	0xbf1d3c11	-0.6141978
52	0xbfb332cf	-1.399988
53	0xbf2063e4	-0.6265242
54	0xbf7f7209	-0.9978338
55	0xbf8bc8e3	-1.0920681
56	0xbe826d95	-0.2547423
57	0xbf5e418d	-0.8681877
58	0xbee2cd59	-0.44297293
59	0xbef7f682	-0.48430258
60	0xbec50806	-0.38482684
61	0xbec1abd0	-0.37826395
62	0xbf123a2b	-0.5712001
63	0xbea4c05c	-0.3217801

running_mean f4 [64]
0	0xc02b9649	-2.6810477
1	0xbf3676f0	-0.71275234
2	0xc08e3f4b	-4.445226
3	0xbfe8667b	-1.8156275
4	0xbf27b4b8	-0.6551013
5	0xbf2f8eef	-0.68577474
6	0xbf15bc64	-0.58490586
7	0xbe345e45	-0.17614086
8	0xbf86f399	-1.054309
9	0xc08be985	-4.372256
10	0x405a7212	3.4132123
11	0xbe396b72	-0.18107393
12	0xbf4c96ba	-0.7991749
13	0xbfbda742	-1.4816668
14	0xbf104a58	-0.5636344
15	0xbf6c8354	-0.9238789
16	0xbf894d77	-1.0726765
17	0xbf12695d	-0.5719202
18	0x401af66a	2.42129
19	0xc04e3db6	-3.2225165
20	0x4082db77	4.08929
21	0x409d007a	4.906308
22	0xc044d0a1	-3.0752337
23	0xc069b114	-3.651433
24	0xc00ce055	-2.2011921
25	0xc01bbd60	-2.4334335
26	0xbd737878	-0.05944106
27	0x3f4ac698	0.7920928
28	0xbfbf2dbe	-1.4935834
29	0xbfb8f91e	-1.4451025
30	0xbc4a84a5	-0.0123607265
31	0xbfe2485e	-1.7678335
32	0x3f4b68ad	0.794566
33	0xbc5d3c18	-0.013503097
34	0xc01b4473	-2.4260528
35	0x3ef15a2c	0.47139108
36	0xc0b851f2	-5.760003
37	0xc0766a81	-3.8502505
38	0x403d12e7	2.9542787
39	0xc009cb51	-2.1530344
40	0xc006e92d	-2.107982
41	0x4072ada8	3.7918491
42	0xbfb467e6	-1.4094207
43	0x3fe3bdef	1.7792338
44	0xc015f85a	-2.3432832
45	0x4083b60d	4.115973
46	0xc051b08d	-3.2764008
47	0xbf1f269d	-0.62168294
48	0x3f8376e8	1.0270662
49	0x3f6127a4	0.8795111
50	0x3ec45ca9	0.38351944
51	0xbf116db3	-0.5680801
52	0xbf6d8fe6	-0.92797697
53	0xbf0cf934	-0.55067754
54	0x3fd85b92	1.6902945
55	0xbe6cef03	-0.2313805
56	0xbfb08c8e	-1.3792894
57	0x3f8ee8a8	1.1164751
58	0x3e9621a4	0.2932254
59	0xbf887560	-1.066082
60	0xbfc5d7e2	-1.5456507
61	0x3dbd6153	0.09247079
62	0x40118b1a	2.274115
63	0x3fbb1b9d	1.4617802

running_var f4 [64]
0	0x40bdc913	5.930795
1	0x40b8c0c0	5.773529
2	0x40bb80e8	5.8594856
3	0x406aba80	3.667633
4	0x406b6b9c	3.678443
5	0x403b69b1	2.928326
6	0x40ca878f	6.3290477
7	0x4063c6bc	3.5590048
8	0x416a9d91	14.663468
9	0x415a7a92	13.654924
10	0x40eb6034	7.3554935
11	0x4125e24f	10.367751
12	0x3fab914d	1.3403717
13	0x40a5dafe	5.1829824
14	0x3faf7fa7	1.3710831
15	0x40135b5f	2.3024518
16	0x40dae27c	6.840147
17	0x40e8085c	7.2510204
18	0x40b1cacf	5.556007
19	0x41159e64	9.35117
20	0x40e3d347	7.1195407
21	0x41203a5b	10.014247
22	0x40a7f671	5.248833
23	0x40954958	4.665203
24	0x406be070	3.6855736
25	0x405af579	3.4212325
26	0x401688db	2.352103
27	0x400c8c12	2.1960492
28	0x404b95ea	3.181025
29	0x40333143	2.7998817
30	0x40f8a627	7.7702823
31	0x40a8d470	5.2759323
32	0x3fe645df	1.7990073
33	0x3f305650	0.688817
34	0x416168b4	14.088062
35	0x3fa9cbe9	1.3265353
36	0x41a15fe9	20.171831
37	0x41293dd0	10.577591
38	0x40b3c609	5.617924
39	0x40ae0f92	5.4394007
40	0x40aafc16	5.343272
41	0x40cc83c1	6.3910832
42	0x40ba9b46	5.8314543
43	0x40429d00	3.0408325
44	0x40e46a6e	7.137992
45	0x4184d61f	16.604551
46	0x41f847bf	31.035032
47	0x40b42c2a	5.630391
48	0x3f92936b	1.1451238
49	0x3fb203e4	1.3907437
50	0x3e9bf265	0.3045837
51	0x3f1c8f42	0.61156094
52	0x3fe52cc1	1.7904283
53	0x40b2e67a	5.5906343
54	0x400cda1d	2.2008126
55	0x3ffb3249	1.9624721
56	0x40826be3	4.07567
57	0x4113b12c	9.230755
58	0x40736afa	3.8034043
59	0x4022dc52	2.5446973
60	0x412fe082	10.9923115
61	0x408253e4	4.0727406
62	0x4121032f	10.063277
63	0x40f82102	7.7540293

weight f4 [64, 4, 16]
0	0x3e8dcd1b	0.27695546
1	0x3d96600f	0.073425405
2	0x3dd9cc1f	0.10634636
3	0xbe0f3ce9	-0.13988079
4	0x3daaf947	0.08348327
5	0x3ea6b4b7	0.3255975
6	0xbd247436	-0.04014989
7	0xbe9a507d	-0.30139533
8	0x3dbc7811	0.09202588
9	0x3e054dac	0.1301791
10	0x3da81f46	0.0820909
11	0x3c1433f5	0.009045591
12	0x3caf407a	0.02139305
13	0xbf000819	-0.50012356
14	0x3e0506bb	0.12990849
15	0x3ea5f055	0.3240992
16	0xbfcf753c	-1.6207652
17	0xbfc436f1	-1.5329267
18	0xbfa37ca2	-1.277241
19	0xbf87877f	-1.0588225
20	0xbf690513	-0.9102337
21	0xbf5587eb	-0.8341052
22	0xbf521d48	-0.8207593
23	0xbf56969c	-0.8382356
24	0xbf64fb14	-0.89445615
25	0xbf6ce76e	-0.92540634
26	0xbf9b7a3b	-1.2146677
27	0xbfb531ae	-1.4155786
28	0xbfc76352	-1.5577185
29	0xbff49a14	-1.9109521
30	0xc009b928	-2.151926
31	0xc0003d4b	-2.003741
32	0xbf3a38b8	-0.72742796
33	0x3e4a0a52	0.197305
34	0xbd941719	-0.07230968
35	0x3e0501e4	0.12989002
36	0xbebae9d3	-0.3650652
37	0x3d66e370	0.056369245
38	0xbea0b270	-0.31386137
39	0x3e23801a	0.15966836
40	0xbf036b22	-0.51335347
41	0x3cbd696e	0.023121562
42	0xbd5ee9e8	-0.05442229
43	0x3dcd317d	0.10019205
44	0x3eed1481	0.46304706
45	0xbd9eecdd	-0.07760022
46	0x3e760731	0.24026181
47	0xbd01ebdd	-0.031719077
48	0xbcc4baa2	-0.024014775
49	0x3ea768f2	0.32697254
50	0x3e714195	0.23560174
51	0x3e516f2c	0.20452565
52	0x3cc3488b	0.023838302
53	0x3e664da2	0.22490552
54	0xbe43b1b1	-0.19110753
55	0x3e4ed544	0.20198542
56	0xbe57ea7a	-0.2108554
57	0x3e7e0097	0.24804913
58	0xbee524f1	-0.44754747
59	0x3e378211	0.1792071
60	0xbf05a2bb	-0.5220143
61	0x3e476aee	0.19474384
62	0xbebc5122	-0.3678065
63	0x3e3353e7	0.17512475
64	0x3ec188dd	0.3779973
65	0xbf0c2466	-0.5474304
66	0x3edbee0a	0.42955047
67	0xbf50b4d0	-0.815259
68	0x3e907f34	0.28222048
69	0xbf59a455	-0.85016376
70	0x3edf1eec	0.4357828
71	0xbf5e861d	-0.8692339
72	0x3ea58cf6	0.32334107
73	0xbf5a49e8	-0.8526902
74	0x3edaa13c	0.42701137
75	0xbf6d4b2b	-0.9269282
76	0x3efa99fa	0.489456
77	0xbf66d0a5	-0.90162116
78	0x3f46efda	0.77709734
79	0xbf5e6d6e	-0.86885726
80	0xc015a44c	-2.338153
81	0xc01b2ee9	-2.4247382
82	0xbffabf5b	-1.9589647
83	0xbff221bf	-1.8916548
84	0xbfc288a0	-1.5197945
85	0xbfc00b92	-1.5003531
86	0xbfd3ab66	-1.6536682
87	0xbfc90cc3	-1.570702
88	0xbfe03697	-1.751666
89	0xbfce0338	-1.6094732
90	0xbfd9ffe0	-1.7031212
91	0xbfd481b2	-1.660208
92	0xbfd85ed5	-1.690394
93	0xc00d9f28	-2.2128391
94	0xbfb14f5f	-1.3852347
95	0xbf92a7e9	-1.1457492
96	0xbe9afef9	-0.30272654
97	0x3f67918b	0.90456456
98	0xbee6f0b5	-0.4510552
99	0x3f27f7c0	0.6561241
100	0xbedd76f0	-0.43254805
101	0x3f3ebe11	0.7450877
102	0xbed1f611	-0.41008046
103	0x3f5fe0d3	0.8745243
104	0xbe88c4ca	-0.26712638
105	0x3f39b6b7	0.72544426
106	0xbe5c181d	-0.21493573
107	0x3f5bfbab	0.8593089
108	0xbdca101a	-0.098663524
109	0x3f875be2	1.0574915
110	0xbe649245	-0.22321422
111	0x3fc2336f	1.5171946
112	0xbf64c726	-0.89366376
113	0x3db4888f	0.08815109
114	0xbf589a42	-0.8461038
115	0xbd7be647	-0.061498906
116	0xbf864609	-1.0490123
117	0x3d43c334	0.047793582
118	0xbf4bec1b	-0.79657143
119	0xbd48bfbf	-0.04901099
120	0xbf433fa1	-0.76268965
121	0xbd01b1c3	-0.031663667
122	0xbf395299	-0.7239166
123	0x3d829d28	0.063776314
124	0xbf5434fa	-0.82893336
125	0x3d3dd13e	0.046342127
126	0xbf4df9cc	-0.80459285
127	0x3eb804c5	0.3594114
128	0x3dd4a6d3	0.10383382
129	0xbe4a8d03	-0.19780354
130	0x3dcde1a5	0.10052804
131	0xbe2899f2	-0.16464975
132	0xbe1bed96	-0.1522735
133	0xbb5a573f	-0.0033316163
134	0xbe7a03c7	-0.24415503
135	0x3e01aace	0.12662813
136	0xbe8c0f4e	-0.27355427
137	0x3d007dd2	0.03136999
138	0xbf025d0a	-0.50923216
139	0x3cf97af3	0.030454135
140	0xbf11ed57	-0.57002777
141	0x3ee33660	0.44377422
142	0xbede22c8	-0.4338591
143	0x3e9bdc2e	0.3044142
144	0xbfc7826c	-1.5586677
145	0xbfe9d899	-1.8269225
146	0xbfa795f8	-1.3092642
147	0xbfd6b9ca	-1.6775448
148	0xbfb0105d	-1.3754994
149	0xbfef057d	-1.867355
150	0xbfc2bc80	-1.5213776
151	0xbfd732fc	-1.6812434
152	0xbfb6cd73	-1.4281448
153	0xbfb5d055	-1.4204203
154	0xbfd420b6	-1.6572483
155	0xbfac83c5	-1.3477713
156	0xbfacf01a	-1.3510773
157	0xbfbb177a	-1.461654
158	0xbfaf70b3	-1.3706268
159	0xbf913344	-1.134377
160	0xbf8d5129	-1.1040393
161	0x3f1ad18b	0.6047599
162	0xbf385f58	-0.72020483
163	0x3ed5e4ce	0.41776127
164	0xbf27bb28	-0.6551995
165	0x3eb11921	0.34589484
166	0xbdef5e79	-0.11687941
167	0x3eaa29cb	0.3323501
168	0xbf0d5582	-0.552086
169	0x3c6d16c6	0.014470762
170	0xbdf77116	-0.12082116
171	0xbd8dd7e2	-0.06925942
172	0xbf0939ff	-0.5360412
173	0xbe1ea27c	-0.1549167
174	0xbe193f19	-0.14965476
175	0xbdbacdf8	-0.09121317
176	0x3ee7ed1f	0.45298097
177	0x3f4c9f52	0.79930604
178	0x3eb4a00f	0.35278365
179	0x3e34b7fa	0.17648306
180	0x3ec24427	0.3794262
181	0xbdcea024	-0.10089138
182	0x3e8d5a8c	0.27608144
183	0xbedb307a	-0.42810422
184	0x3e8319f3	0.25605735
185	0xbf43d9a3	-0.7650396
186	0x3ee260b4	0.44214404
187	0xbf529f3f	-0.8227424
188	0x3ea15e8a	0.3151744
189	0xbf524e57	-0.8215079
190	0x3e99e70c	0.30059087
191	0xbf3a4f60	-0.72777367
192	0xbf3b804d	-0.73242646
193	0xbe219026	-0.15777645
194	0xbf5b52e7	-0.85673374
195	0xbd403876	-0.046928845
196	0xbf8dc11d	-1.1074558
197	0x3c99edd9	0.018790172
198	0xbfa4f2da	-1.2886612
199	0xbc445b4e	-0.011984659
200	0xbf9af949	-1.2107326
201	0xbdea973d	-0.11454628
202	0xbf73cbc7	-0.95232815
203	0x3e2e3799	0.17013396
204	0xbf808b30	-1.0042477
205	0x3e8e6c8c	0.2781719
206	0xbf65e85f	-0.89807695
207	0x3f037218	0.5134597
208	0xbf851e06	-1.0399787
209	0xbf9497f0	-1.1608868
210	0xbf1c8e17	-0.6115431
211	0xbf5011d7	-0.8127722
212	0xbef7b51a	-0.48380357
213	0xbf3a540d	-0.727845
214	0xbf111760	-0.5667629
215	0xbf324e88	-0.6965108
216	0xbef4eca4	-0.47836792
217	0xbf1e968c	-0.61948466
218	0xbee3522f	-0.4439864
219	0xbefdd441	-0.49576
220	0xbe8f47c5	-0.27984443
221	0xbef85e82	-0.48509604
222	0xbec28fb3	-0.3800026
223	0xbee5a2e9	-0.44850853
224	0x3e2e52f7	0.17023836
225	0xbf9130f4	-1.1343064
226	0x3e2ba1aa	0.16760889
227	0xbf8ac47e	-1.0841215
228	0x3e752390	0.23939347
229	0xbf8db0c5	-1.1069571
230	0x3e6e6da7	0.23284017
231	0xbf88a337	-1.0674809
232	0x3e2ca3b0	0.16859317
233	0xbf5a92b4	-0.853801
234	0x3e2b2cbd	0.16716285
235	0xbeec722b	-0.46180853
236	0x3e847a26	0.25874442
237	0xbee264e5	-0.442176
238	0x3f21afae	0.6315869
239	0xbed5e2a8	-0.41774487
240	0x3f03921f	0.5139484
241	0xbdfeb7ea	-0.124374226
242	0x3ec47ca5	0.38376346
243	0x3dca8d82	0.09890272
244	0x3e880835	0.2656876
245	0x3e276042	0.16345313
246	0x3e440de3	0.19145922
247	0x3e60d3d4	0.21955806
248	0x3de1857b	0.110117875
249	0x3e8dbb13	0.2768179
250	0x3d89ca68	0.06728059
251	0xbd414476	-0.04718443
252	0x3e078e62	0.13237908
253	0xbe41a4d8	-0.18910539
254	0x3e9691b5	0.2940804
255	0xbe5e5bcb	-0.21714704

bias f4 [64]
0	0xbdea7de8	-0.11449796
1	0xbd8ddb2e	-0.06926571
2	0xbca24d99	-0.019812392
3	0xbe36decc	-0.17858428
4	0x3e10c934	0.14139253
5	0xbdcebc9a	-0.10094567
6	0xbdeee2a1	-0.1166432
7	0x3d3e12bc	0.046404585
8	0x3dde988f	0.10868942
9	0xbdb29ae2	-0.08720948
10	0x3dc5607d	0.09637544
11	0x3cbd2b0e	0.02309182
12	0x3d1f563e	0.038900606
13	0xbc8f1f4d	-0.01747098
14	0x3dcd63d4	0.10028806
15	0x3dfcf4e0	0.12351394
16	0x3dac814a	0.084230974
17	0xbcd39619	-0.025828408
18	0xbe136714	-0.1439479
19	0xb9e12801	-0.0004294515
20	0xbddb42ac	-0.10706076
21	0x3e064d07	0.13115321
22	0xbda344a1	-0.07972074
23	0x3d99f16d	0.075167514
24	0xbd8f4f5a	-0.06997557
25	0xbe271b1c	-0.16318935
26	0xbe0e3228	-0.1388632
27	0xbd983fe8	-0.07434064
28	0x3e19c6f4	0.15017301
29	0x3cf7c3e9	0.030244784
30	0xbe396aa9	-0.18107094
31	0xbd92d9d9	-0.071704574
32	0x3c756777	0.014978281
33	0x3dc1f2ef	0.09470164
34	0x3da7055e	0.081553206
35	0x3d7fe88b	0.06247763
36	0xbdb9b41c	-0.09067556
37	0xbc0f1bb5	-0.008734633
38	0xbb6320c3	-0.0034656979
39	0x3e047603	0.12935643
40	0xbdf0efb4	-0.1176447
41	0xbdb45cab	-0.088067375
42	0x3de4ccaf	0.11171853
43	0xbcdb9bc1	-0.026807668
44	0xbe5cd501	-0.2156563
45	0xbe415c23	-0.18882804
46	0xbc727be0	-0.014800042
47	0xbc2e87bb	-0.010652478
48	0x3d0cfd7a	0.03442142
49	0x3d6036f3	0.054739904
50	0xbd1e27a1	-0.03861201
51	0xbdb9476f	-0.09046828
52	0xbe5664a3	-0.20936827
53	0x3e2d190e	0.16904089
54	0xbd3ed96e	-0.046594076
55	0xbe48b908	-0.19601834
56	0x3cd091ea	0.025460202
57	0xbe8e70bf	-0.27820393
58	0xbe2091c6	-0.15680608
59	0xbcc885b1	-0.024477812
60	0x3c51fd53	0.012816745
61	0x3c956e91	0.018241199
62	0x3df58e32	0.11990012
63	0xbe1b3890	-0.15158296

weight f4 [64]
0	0x3f5fd4a2	0.87433827
1	0x3f56638c	0.83745646
2	0x3f5a198d	0.8519524
3	0x3f4d43aa	0.8018137
4	0x3f113ead	0.5673626
5	0x3f398b99	0.72478634
6	0x3f108ad1	0.5646182
7	0x3f699d0f	0.9125528
8	0x3f56cfd1	0.8391085
9	0x3f84d616	1.0377834
10	0x3f6420e7	0.89112705
11	0x3f489b56	0.78362024
12	0x3fd087a1	1.6291391
13	0x3f07f58e	0.5310906
14	0x3f2bd72f	0.6712522
15	0x3f5a602e	0.8530301
16	0x3f1492f0	0.5803671
17	0x3f28d8d6	0.65955865
18	0x3f7a9730	0.97886944
19	0x3f5e802a	0.8691431
20	0x3f7d3e85	0.9892352
21	0x3f86d5ce	1.0533998
22	0x3fa23470	1.2672253
23	0x3f1caeaa	0.61204016
24	0x3f34eb05	0.7067111
25	0x3f08434e	0.532277
26	0x3ee501bf	0.44727895
27	0x3f43d0e8	0.7649064
28	0x3ee61bc5	0.4494306
29	0x3f498bd3	0.7872898
30	0x3f3d06c1	0.7383843
31	0x3f9251b9	1.143119
32	0x3f3f363d	0.74692136
33	0x3f5fd7f3	0.8743889
34	0x3fb59d4c	1.4188628
35	0x3f8444fd	1.0333554
36	0x3f9bb29f	1.2163886
37	0x3f387d01	0.7206574
38	0x3f75268f	0.9576196
39	0x3fa36776	1.2765949
40	0x3f5f06d4	0.87119794
41	0x3f26d16f	0.6516332
42	0x3f733a2c	0.9501064
43	0x3f70dc45	0.94086105
44	0x3f2ff5ef	0.6873464
45	0x3f6820e1	0.9067517
46	0x3f10bb5c	0.5653589
47	0x3f6cdfd6	0.92529047
48	0x3f2bc878	0.67102766
49	0x3e7adc3d	0.24498077
50	0x3ef298cb	0.47382197
51	0x3f7aadc9	0.97921425
52	0x3f8805d9	1.0626785
53	0x3f33481e	0.7003192
54	0x3faa3439	1.3297187
55	0x3f5a6135	0.85304576
56	0x3f212561	0.6294766
57	0x3f524823	0.8214132
58	0x3f8775a1	1.0582772
59	0x3f6c5371	0.9231482
60	0x3f5cd335	0.86259776
61	0x3f862585	1.04802
62	0x3f828d16	1.0199306
63	0x3f4b718c	0.79470134

bias f4 [64]
0	0xbf9a62d4	-1.206141
1	0xbe14eaa4	-0.14542633
2	0xbebc62c8	-0.36794114
3	0xbe763ba6	-0.24046192
4	0xbefa46a7	-0.48882028
5	0xbf344ad9	-0.7042671
6	0xbf0b4a61	-0.5441037
7	0xbf5f721c	-0.8728349
8	0xbf11b8a1	-0.56922346
9	0xbf188fb3	-0.5959427
10	0xbf21649d	-0.6304415
11	0xbec3fb5c	-0.3827771
12	0xbe563d23	-0.2092176
13	0xbe92f2bf	-0.28700826
14	0xbdcbb00d	-0.099456884
15	0xbf1075fd	-0.56430036
16	0xbec6d4fa	-0.38834363
17	0xbf152c9d	-0.582712
18	0xbf4a536c	-0.7903354
19	0xbf3b0898	-0.7305999
20	0xbf1bd7ad	-0.6087597
21	0xbef4d5d7	-0.47819397
22	0xbde38ee4	-0.111112386
23	0xbebf16bc	-0.37322032
24	0xbf46b365	-0.77617484
25	0xbd8fae9a	-0.070157245
26	0x3de3f624	0.11130932
27	0xbf85018a	-1.0391095
28	0xbe7cef8c	-0.24700755
29	0xbf6f6ad7	-0.935224
30	0xbfa0628d	-1.2530075
31	0x3cb1c04f	0.021698145
32	0xbea3fc5c	-0.32028472
33	0xbde29101	-0.110628136
34	0xbe4829aa	-0.19547144
35	0xbf55178d	-0.8323906
36	0x3ec6a06f	0.38794276
37	0xbf0838d3	-0.53211707
38	0xbf2455df	-0.6419353
39	0xbd11c98f	-0.035592612
40	0xbf0e143f	-0.55499643
41	0xbeb3befb	-0.35106644
42	0xbf4d9818	-0.803102
43	0xbf1a94bb	-0.60383195
44	0xbf7d91dc	-0.9905069
45	0xbf29c8f4	-0.66322255
46	0xbf052dba	-0.520229
47	0xbf0386e7	-0.5137772
48	0xbe5903eb	-0.21192901
49	0xbec18a12	-0.37800652
50	0xbe7d038d	-0.24708386
51	0xbf48ab7d	-0.7838667
52	0xbea1f4d0	-0.3163209
53	0xbea97687	-0.33098242
54	0xbeeadfe4	-0.4587394
55	0xbd8f7619	-0.07004947
56	0xbde19622	-0.11014964
57	0xbf004a9f	-0.5011386
58	0xbf09fffc	-0.53906226
59	0xbf4d4222	-0.80179036
60	0xbef35069	-0.47522286
61	0xbec43b1b	-0.38326344
62	0xbf269f12	-0.6508647
63	0xbecbdef4	-0.39818537

running_mean f4 [64]
0	0x3f545ca4	0.8295386
1	0xbf85210a	-1.0400708
2	0xbf1a86f2	-0.6036216
3	0xbfc64e1c	-1.5492587
4	0xbe90acf5	-0.28256956
5	0xc0a33d83	-5.1012588
6	0xc010e466	-2.2639403
7	0xc13fbc32	-11.983446
8	0xbf77662d	-0.9664028
9	0xc0318a01	-2.774048
10	0xc016b63c	-2.3548727
11	0xbfa9cfd7	-1.3266553
12	0x3f19f31d	0.60136586
13	0x3dd6c8b3	0.10487499
14	0xbeb8a2e8	-0.36061788
15	0xbf40dbff	-0.7533569
16	0xc0488cb5	-3.133588
17	0xc106baa3	-8.420566
18	0xc181ea22	-16.239323
19	0xc11764e3	-9.462131
20	0x3f69e77d	0.9136885
21	0xbf337bd8	-0.70110846
22	0x3ec5b0d0	0.3861146
23	0x3e2fbf48	0.17162812
24	0xc0dd65b4	-6.918665
25	0xbeab664c	-0.33476484
26	0x3f065707	0.52476543
27	0xc0904d48	-4.5094337
28	0x3e9f44e9	0.31107262
29	0x3f063e53	0.5243885
30	0x3e748756	0.23879752
31	0x3ef8cad5	0.4859225
32	0xbfd76f98	-1.6830931
33	0xbf8d1789	-1.1022807
34	0xbf32622c	-0.6968105
35	0xc04fc3be	-3.2463222
36	0x3ecf6f00	0.40514374
37	0x3e723fe0	0.23657179
38	0xbec5bbdb	-0.38619885
39	0x3f2627c5	0.64904433
40	0xbfc72f16	-1.5561244
41	0xbf9f19e6	-1.2429779
42	0xc09d0cff	-4.9078364
43	0xc015bd76	-2.3396888
44	0xbdf7c279	-0.120976396
45	0xbfeb3c81	-1.8377839
46	0xbf220c72	-0.6330024
47	0xbfd6d80a	-1.678468
48	0xbe59d08c	-0.2127096
49	0x3e9b6acb	0.30354914
50	0xbec97616	-0.39347905
51	0xc063efe6	-3.5615172
52	0xbf338c21	-0.70135695
53	0x3e58c2ab	0.2116801
54	0x3f024ea4	0.50901246
55	0x3be3303e	0.006933241
56	0x3f2fe004	0.68701196
57	0xc0064525	-2.0979702
58	0xc0305ce2	-2.755669
59	0xc0119005	-2.2744153
60	0xbf38c6d6	-0.721784
61	0xbf7b7595	-0.9822629
62	0xbf6615a4	-0.8987677
63	0xbebb43d1	-0.36575177

running_var f4 [64]
0	0x405af572	3.4212308
1	0x42016ba4	32.355118
2	0x40b801cd	5.75022
3	0x4178998d	15.537488
4	0x40399973	2.8999908
5	0x41c0108d	24.008081
6	0x4107e322	8.492952
7	0x4324a3d2	164.63992
8	0x40869048	4.2051125
9	0x41abdfb4	21.48423
10	0x410f7483	8.965945
11	0x411da4d5	9.852742
12	0x3f032d9a	0.5124146
13	0x3f7dde6b	0.9916751
14	0x4023126e	2.5479999
15	0x40230ec1	2.5477755
16	0x416d9de7	14.85105
17	0x42a6a775	83.327065
18	0x43bdecdc	379.85046
19	0x42ff1ac4	127.55228
20	0x406240cf	3.5352056
21	0x40632fae	3.5497851
22	0x413ba56f	11.727889
23	0x3fea5a60	1.830883
24	0x41d156e1	26.167421
25	0x40d0b157	6.521648
26	0x40d3c527	6.6178164
27	0x412f02dd	10.938199
28	0x3ebe274f	0.37139365
29	0x3f63a1ec	0.8891895
30	0x3f42f6da	0.76157916
31	0x3fe710c5	1.8051993
32	0x4105d685	8.364873
33	0x423853f9	46.082005
34	0x41009653	8.0367
35	0x41189eba	9.538752
36	0x3fb5588a	1.4167645
37	0x3ee48e2c	0.4463972
38	0x4039b8f4	2.9019136
39	0x3fac24eb	1.3448766
40	0x40c41fee	6.1288977
41	0x410d9ab5	8.85027
42	0x41d82a5e	27.020687
43	0x40ff001c	7.9687634
44	0x3e73af46	0.2379733
45	0x40d6cfd9	6.712872
46	0x404feff6	3.249021
47	0x41216e4d	10.089429
48	0x40004324	2.004098
49	0x3fadc477	1.3575581
50	0x401fcfc3	2.4970558
51	0x416a1c17	14.631858
52	0x4075094f	3.8286932
53	0x3f2010b9	0.62525517
54	0x3f4880fd	0.7832182
55	0x3f03f650	0.5154772
56	0x3fb85b1a	1.4402802
57	0x40dc8443	6.891145
58	0x41ca1210	25.25882
59	0x40d9372c	6.787985
60	0x402c1110	2.6885414
61	0x4137e93a	11.49444
62	0x404353cd	3.0519898
63	0x3f15911f	0.5842456
